data/models/dqn_agent.pth (torch, 828177 bytes, 24 tensors)

fc1.weight f4 [128, 45]
0	0x3c05f9f9	0.008177274
1	0xbe27e3b8	-0.16395462
2	0x3b3d23bf	0.0028860418
3	0x3f156591	0.58358103
4	0x3d9d0b83	0.07668211
5	0xbe0ccb6b	-0.13749473
6	0x3dbfeac6	0.09370951
7	0x3e17c950	0.14822888
8	0xbe1fd8cd	-0.15610047
9	0xbe1d83b7	-0.15382276
10	0x3ceee667	0.029162599
11	0x3e362d19	0.17790641
12	0xbdff19c4	-0.12456086
13	0xbbeeaf9f	-0.0072841193
14	0xbdf00244	-0.11719182
15	0xbdb35a16	-0.08757417
16	0x3e1bb9ae	0.1520755
17	0xbda7477e	-0.08167933
18	0x3dd58f7e	0.104277596
19	0x3ecb97ee	0.3976435
20	0xbe23959e	-0.15975043
21	0xbdf82c46	-0.121178195
22	0xbd9d5991	-0.07683099
23	0xbe040c0e	-0.12895223
24	0x3e2ad8f2	0.1668432
25	0x3d25839c	0.040408716
26	0x3d69c695	0.05707415
27	0x3f1b196a	0.60585654
28	0xbd27b1fd	-0.040941227
29	0xbe00c2fe	-0.12574384
30	0x3cc30437	0.02380572
31	0x3d516e38	0.051130503
32	0x3e49b1ad	0.19696684
33	0x3e50862d	0.20363684
34	0xbcc13f42	-0.023589734
35	0x3eb4cc2d	0.35312024
36	0xbd678ea1	-0.056532506
37	0xbe5f536e	-0.2180917
38	0x3df9e9d4	0.12202802
39	0x3e1293d7	0.14314209
40	0x3e8cc044	0.27490437
41	0xbf8d5c98	-1.1043882
42	0x3ed0c1ce	0.4077286
43	0x3d1d0082	0.038330562
44	0xbe327a37	-0.17429434
45	0xbdd38222	-0.10327555
46	0xbe2cedc1	-0.16887571
47	0xbec6b2e1	-0.3880835
48	0xbf4d9ec1	-0.80320364
49	0x3cd19009	0.025581377
50	0xbe04cf9f	-0.12969826
51	0x3dc0b3b7	0.09409278
52	0xbdc386ae	-0.095471725
53	0xbeb04bee	-0.3443293
54	0xbe5f2793	-0.2179244
55	0x3e82a23b	0.25514397
56	0xbe1c6b1d	-0.15275235
57	0x3e445285	0.19172104
58	0x3d756c09	0.059917483
59	0xbda9bcb3	-0.08287945
60	0x3d8cf91c	0.06883451
61	0xbfece8ae	-1.8508508
62	0xbfe171e5	-1.7612883
63	0xc01953cf	-2.3957403
64	0xc06585cc	-3.5862913
65	0xbd0266b3	-0.031836223
66	0x3d9e2611	0.07722104
67	0xbd665b3d	-0.056239355
68	0xbd0bc16c	-0.03412001
69	0xbf292c7f	-0.6608352
70	0xbec46511	-0.38358358
71	0xbf475a35	-0.7787202
72	0xbf2c326e	-0.6726445
73	0xbde6e398	-0.11273879
74	0xbd2c760a	-0.04210476
75	0x3e38ecae	0.18059036
76	0xbe05bdc6	-0.13060674
77	0x3dfc9886	0.12333779
78	0x3e8cd427	0.2750561
79	0xbdefd527	-0.117105775
80	0xbe3e6ee8	-0.18596995
81	0xbdafffae	-0.08593689
82	0xbe27e9e4	-0.16397816
83	0x3e018023	0.12646537
84	0x3e56fc82	0.20994762
85	0xbf22c10e	-0.6357583
86	0xbd82b24d	-0.063816644
87	0xbeb54030	-0.35400534
88	0x3e2b1be4	0.16709858
89	0x3d2c1e44	0.04202105
90	0xbeaccd70	-0.33750486
91	0xbe6c2988	-0.23062718
92	0xbe5278ec	-0.2055394
93	0xbf85f0ea	-1.0464146
94	0x3e5b8117	0.21435963
95	0x3e8d33d2	0.27578598
96	0x3e4fb37c	0.20283312
97	0x3dc3b8d9	0.09556741
98	0xbeef4932	-0.4673553
99	0xbf17c94a	-0.5929152
100	0x3d9cfddc	0.07665607
101	0xbf3a15e4	-0.7268965
102	0x3d840cbd	0.06447742
103	0x3e9619e9	0.29316643
104	0x3eaa0ca2	0.33212763
105	0xbc0c0f00	-0.008548498
106	0xbcdc3d52	-0.026884709
107	0xbddc2331	-0.107489
108	0xbe32a8cf	-0.17447208
109	0xbf8690c1	-1.0512925
110	0x3ed37645	0.4130117
111	0x3e9b0fb1	0.3028541
112	0x3ec8de4b	0.39232096
113	0x3b9348c0	0.0044947565
114	0x3dd19990	0.10234368
115	0x3ea1f86f	0.31634852
116	0x3e622a5b	0.2208647
117	0xbed0586c	-0.4069246
118	0x3e788499	0.24269332
119	0x3dab1ea8	0.083554566
120	0x3ecaa93e	0.39582247
121	0x3dbf3670	0.09336555
122	0xbee185c5	-0.4404737
123	0xbeaeab59	-0.34115103
124	0xbef8bf77	-0.48583576
125	0xbfad287b	-1.3527979
126	0x3e93708d	0.28796807
127	0x3ebfd80d	0.3746952
128	0x3d1f4947	0.038888242
129	0x3ded229c	0.11578867
130	0xbe8d1fe4	-0.27563393
131	0xbe9cddf2	-0.3063808
132	0xbe48c27f	-0.19605444
133	0x3dcae714	0.09907356
134	0xbdadde51	-0.08489669
135	0xbdce88c8	-0.10084683
136	0xbc9e6fde	-0.019340452
137	0xbe247f61	-0.16064216
138	0xbdf329ff	-0.118732445
139	0x3da7e1d6	0.08197372
140	0xbc91bf48	-0.017791405
141	0xbc78eaed	-0.015192729
142	0x3c820c58	0.015875027
143	0xbdcf0a16	-0.101093456
144	0xbe4bda40	-0.19907475
145	0xbda93fe1	-0.08264137
146	0xbd8825f8	-0.06647867
147	0xbdaf2d90	-0.08553612
148	0x3c270fc0	0.010196626
149	0x3e0305b4	0.12795144
150	0xbde4ec5b	-0.11177894
151	0x3be147ba	0.0068750056
152	0xbdcb9526	-0.09940557
153	0x3d627363	0.055285823
154	0xbe5b2192	-0.21399525
155	0x3e02ea37	0.12784658
156	0xbde7fcfc	-0.1132755
157	0xbd7dcd1e	-0.061963193
158	0x3d297c54	0.041378334
159	0x3d96591d	0.07341216
160	0xbdc7d75c	-0.097578734
161	0xbda30a42	-0.07960941
162	0xbd6be68e	-0.05759292
163	0x3e097485	0.13423355
164	0xbd92926f	-0.07156836
165	0x3dfed202	0.124423996
166	0x3deaea18	0.11470431
167	0xbc77cc9d	-0.015124467
168	0x3c061cc4	0.008185569
169	0x3d718215	0.058961947
170	0x3d4706fe	0.048590653
171	0x3d745538	0.059651583
172	0xbe345c6d	-0.17613383
173	0xbe1e6578	-0.15468395
174	0x3dab6bcd	0.08370171
175	0xbc89ca40	-0.016820073
176	0x3d125f98	0.035735697
177	0x3b05436a	0.0020334371
178	0xbe05e701	-0.13076402
179	0x3e2c3a78	0.16819179
180	0xbe3ff299	-0.18744887
181	0xbdca317c	-0.0987272
182	0xbe0d9b52	-0.13828781
183	0x3e589c5e	0.211534
184	0x3de8cf1e	0.113676295
185	0xbdb5c3d7	-0.08875244
186	0xbc8b4f55	-0.017005602
187	0xbe0ff1d3	-0.14057092
188	0x3bcd033c	0.006256489
189	0x3de38557	0.11109417
190	0xbe58652b	-0.21132343
191	0x3e0270b6	0.12738308
192	0x3dd69558	0.10477704
193	0x3d2cf2c5	0.04222371
194	0x3d9da04b	0.07696589
195	0xbdc5eef2	-0.09664716
196	0x3e22f4c8	0.15913689
197	0x3e6a2eee	0.22869465
198	0xbda0297e	-0.07820414
199	0x3edec080	0.4350624
200	0x3da5a268	0.08087617
201	0xbd7fb32f	-0.062426742
202	0x3c473ec5	0.0121609615
203	0x3c8be525	0.017077038
204	0x3dbf1b71	0.09331406
205	0x3c019ba8	0.0079106465
206	0x3de2de17	0.110775165
207	0x3f0ee27f	0.55814356
208	0xbe13051f	-0.14357422
209	0x3d5561a0	0.052095056
210	0xbe46262c	-0.19350499
211	0xbcbd79f4	-0.02312944
212	0xbe149ff7	-0.14514147
213	0x3dc45be4	0.09587839
214	0x3d278d26	0.040906094
215	0x3ede830f	0.43459365
216	0x3c90ff9d	0.01770001
217	0xbec2e9c4	-0.38068974
218	0xbe4f918f	-0.2027037
219	0xbe24ee80	-0.16106606
220	0x3e9102c1	0.28322414
221	0xbf673c4b	-0.90326375
222	0x3e8dad96	0.27671498
223	0x3c190156	0.009338697
224	0xbb8c6ee0	-0.0042856783
225	0x3de55d14	0.11199394
226	0x3df87c85	0.12133125
227	0xbe51c429	-0.20484985
228	0xbe154839	-0.14578332
229	0xbdf74664	-0.12073973
230	0x3d3a2388	0.04544404
231	0xbd2833b8	-0.041064948
232	0x3e0224c8	0.12709343
233	0xbe1d3a34	-0.15354234
234	0x3dc5bf08	0.09655577
235	0xbe12b320	-0.14326143
236	0x3d6e3a28	0.05816093
237	0x3d9a69e3	0.075397275
238	0xbcd7ffaf	-0.026367037
239	0xbddd4ac5	-0.10805277
240	0xbe21aa70	-0.15787673
241	0x3dd675dd	0.104716994
242	0xbdc6f75d	-0.097151496
243	0x3dc6f9c5	0.097156085
244	0xbe1f8e1e	-0.15581557
245	0xbe47dd49	-0.19518007
246	0xbe4edf70	-0.20202422
247	0xbdaae560	-0.08344531
248	0x3df654f4	0.12027922
249	0xbe403024	-0.18768364
250	0xbd8e12b9	-0.06937165
251	0x3db5743d	0.08860061
252	0xbe01e2cd	-0.12684174
253	0xbe49fb18	-0.19724691
254	0xbddda79b	-0.10822984
255	0x3dae9070	0.08523643

fc1.bias f4 [128]
0	0x3cad4dc1	0.02115524
1	0x3cfe753f	0.031061767
2	0x3e836e80	0.25670242
3	0xbca7fec9	-0.020507233
4	0xbc83175d	-0.016002351
5	0xbcb00351	-0.021485956
6	0xbb9a925e	-0.0047171554
7	0x3dcb3515	0.09922234
8	0xbcc4b0d4	-0.0240101
9	0x3c23d70a	0.01
10	0xbca801c5	-0.020508656
11	0x3e376215	0.17908509
12	0x3d8cf53f	0.068827145
13	0x3c23d70a	0.01
14	0x3e77628e	0.2415869
15	0x3d6de502	0.058079727
16	0xbc4a23f9	-0.012337678
17	0x3b8f2f37	0.004369642
18	0xbddc7298	-0.107640445
19	0xbd981880	-0.07426548
20	0x3e2e627b	0.17029755
21	0x3c9e7393	0.01934222
22	0xbc79e9ba	-0.015253479
23	0xbd1e5526	-0.038655423
24	0xbd259664	-0.040426627
25	0x3cacfb62	0.021115962
26	0xbd3326ce	-0.04373818
27	0xbc79496c	-0.015215259
28	0x3d5102ba	0.05102799
29	0xbe0e31b6	-0.1388615
30	0x3db695e6	0.089153096
31	0xbb4b6dad	-0.0031040714
32	0x3c2517e0	0.010076493
33	0xbd254f53	-0.040358853
34	0xbd0855da	-0.033285
35	0xbd79bb5f	-0.060969707
36	0xbb88688d	-0.004162854
37	0xbd56fe05	-0.052488346
38	0x3b58b4fe	0.0033066864
39	0x3e90a31a	0.28249437
40	0x3e5dea8f	0.21671508
41	0xbd2cfaac	-0.042231247
42	0x3c23d70a	0.01
43	0x3d19faff	0.037592884
44	0xbd0ea906	-0.034829162
45	0xbd19b1e1	-0.037523154
46	0xbb417157	-0.0029517019
47	0xbd402474	-0.046909764
48	0xba49e5fd	-0.00077018124
49	0xbd9d6d8a	-0.076869085
50	0x3bfcd6df	0.0077160443
51	0xbd0457d1	-0.03231031
52	0x3d18cd95	0.037305433
53	0x3e9c3712	0.30510765
54	0xbcad2206	-0.021134388
55	0x3c342199	0.010994338
56	0x3c842bf4	0.01613424
57	0x3dc6077e	0.09669398
58	0x3c832263	0.016007608
59	0x3cb4eb4b	0.022084853
60	0x3c1ad5ea	0.009450415
61	0xbcfd5bf9	-0.030927645
62	0x3d650a22	0.055917867
63	0xbcc6503b	-0.024208179
64	0x3b98633a	0.0046505006
65	0x3de074cd	0.10959778
66	0x3d168a13	0.03675277
67	0xbdb275fd	-0.08713911
68	0xbd777884	-0.060417667
69	0x3d269683	0.040670883
70	0x3d3fe606	0.046850227
71	0xbd73d771	-0.059531633
72	0x3e23a4cd	0.15980835
73	0xbd2b6bf0	-0.041850984
74	0x3e2c359f	0.1681733
75	0xbd8f579f	-0.06999134
76	0x3da78a2f	0.08180653
77	0x3de3beb6	0.111203596
78	0x3e04db77	0.12974344
79	0x3d9a203d	0.0752568
80	0x3c159972	0.0091308225
81	0x3c6fa39f	0.014626413
82	0xbd713b3f	-0.058894392
83	0xbd4ace7f	-0.049513336
84	0x3bce64af	0.0062986235
85	0xbae1c2cf	-0.0017224195
86	0xbce40283	-0.027833229
87	0xbda00863	-0.078141
88	0xbe11860a	-0.14211288
89	0xbc36b2f9	-0.011151069
90	0xbc52b07f	-0.012859463
91	0x3c10ee92	0.008845942
92	0xbd77ff07	-0.060545947
93	0x3d07a65e	0.033117644
94	0xbc34e774	-0.011041511
95	0xbd59e5d1	-0.053197686
96	0xbc0fb6b4	-0.008771587
97	0x3e05086e	0.12991497
98	0xbd292ed2	-0.041304417
99	0x3e962385	0.29323974
100	0xbd3dc693	-0.046331953
101	0x3d8eb9e0	0.069690466
102	0xbbfb9161	-0.0076772426
103	0x3e011445	0.12605388
104	0xbd84de55	-0.06487719
105	0x3dd532f4	0.10410109
106	0x3c8b3d5a	0.016997028
107	0x3e145d1f	0.14488648
108	0xbd94941c	-0.07254812
109	0xbc6ab754	-0.014325935
110	0xbcab9ffd	-0.020950312
111	0x3e089266	0.13337097
112	0x3e1144d2	0.14186409
113	0x3e08a789	0.1334516
114	0x3d2acb4b	0.04169778
115	0x3d0fd4de	0.035115115
116	0xbd36ca0b	-0.044626277
117	0x3a759b21	0.00093691243
118	0x3dc29429	0.095009156
119	0x3dc97939	0.098375745
120	0x3d9fd3cd	0.0780407
121	0xbcf278e5	-0.029598663
122	0xbaf456d7	-0.0018641603
123	0xbd1aa8f8	-0.037758797
124	0x3da01b4c	0.078177065
125	0x3d22c5c4	0.039739385
126	0x3e291dab	0.16515224
127	0xbd16e1fa	-0.0368366

fc2.weight f4 [128, 128]
0	0x3eb9aef9	0.36266306
1	0xbf0d62ae	-0.552287
2	0xbe1e2efa	-0.15447608
3	0xbd951ffd	-0.07281492
4	0x3e1e8d39	0.1548356
5	0xbd4a89b0	-0.049447715
6	0x3e4d2937	0.20035253
7	0xbe703782	-0.23458675
8	0x3e172ca3	0.14763121
9	0xbdcd9f78	-0.10040182
10	0xbc182e1e	-0.009288339
11	0xbe4d496f	-0.20047544
12	0xbd7bdc28	-0.061489254
13	0xbdb1c728	-0.08680564
14	0xbdc9b30e	-0.09848605
15	0xbbf3fb65	-0.00744574
16	0x3e8f982e	0.2804579
17	0x3e929014	0.28625548
18	0x3e09cc02	0.13456729
19	0x3ea285e1	0.31742766
20	0xbe70f30a	-0.23530212
21	0xbdadf8c1	-0.08494712
22	0x3cd59f2d	0.026076877
23	0x3e1c74f9	0.15278997
24	0x3e9d0812	0.3067022
25	0x3e21d6a7	0.1580454
26	0x3e059ec3	0.13048844
27	0x3ec0d705	0.37664047
28	0xbd818677	-0.06324475
29	0xbd217408	-0.039417297
30	0xbe973e10	-0.29539537
31	0x3e636d8e	0.2220976
32	0x3ebb4c8c	0.36581838
33	0x3e434573	0.19069462
34	0xbc2cdf1d	-0.010551241
35	0x3e0ea99a	0.13931885
36	0x3e77ce62	0.24199823
37	0x3e8bd3a6	0.27309912
38	0x3eb0efd7	0.34557983
39	0xbe1f947a	-0.15583983
40	0xbed74678	-0.4204595
41	0x3ce17222	0.027520243
42	0x3d0d3db8	0.034482688
43	0xbdb9eb63	-0.090780996
44	0x3eb9bf29	0.36278656
45	0x3e8338e0	0.2562933
46	0xbe097779	-0.13424481
47	0xbc63ac69	-0.013896086
48	0x3eb783a0	0.3584261
49	0x3e78ed96	0.24309382
50	0xbe242928	-0.16031325
51	0xbc4e4239	-0.012589031
52	0x3eec97f0	0.4620967
53	0xbcb8ce09	-0.022559183
54	0x3e00ce2b	0.12578647
55	0x3dafc1fa	0.0858192
56	0xbd02e3d8	-0.03195557
57	0xbeca2e77	-0.39488575
58	0x3eabdf11	0.33568624
59	0x3e829c1d	0.2550973
60	0x3ea12613	0.3147436
61	0x3e8e1493	0.27750072
62	0x3e7aa8f2	0.2447851
63	0x3ec2b37b	0.38027558
64	0xbfc71c18	-1.5555449
65	0xbcb2235d	-0.021745378
66	0xbeffe2e8	-0.49977803
67	0xbd53ffa2	-0.051757462
68	0xbf61b8a0	-0.8817234
69	0x3ec69ea5	0.3879291
70	0xbe614598	-0.21999204
71	0x3ed78980	0.42097092
72	0xbe9c2045	-0.3049337
73	0x3de385cd	0.11109505
74	0xbe001b2f	-0.1251037
75	0xbe4d8fba	-0.20074359
76	0xbd4b126a	-0.049578108
77	0x3d0f75e5	0.035024542
78	0xbe1f399a	-0.15549317
79	0x3e865a4c	0.26240766
80	0x3ee18846	0.4404928
81	0x3f3bf348	0.7341809
82	0x3dcf0fe1	0.101104505
83	0xbda78355	-0.081793465
84	0x3ec26755	0.3796946
85	0xbd1d11c1	-0.03834701
86	0x3daae105	0.083437
87	0xbc5e52fd	-0.013569591
88	0x3df0da77	0.11760419
89	0x3e4c7963	0.1996818
90	0x3e7d3144	0.24725825
91	0x3ecfbd5b	0.40574154
92	0x3e067342	0.13129905
93	0xbecfa0f0	-0.40552473
94	0x3ee58435	0.44827428
95	0x3df1f1f4	0.11813727
96	0x3e05d9d7	0.1307138
97	0xbefd9a26	-0.49531668
98	0x3dfdc51d	0.12391112
99	0xbf430af3	-0.7618858
100	0xbfb6b1a4	-1.4272962
101	0x3e8f7b8a	0.2802394
102	0x3c8cd6e1	0.017192306
103	0xbdf8b4fa	-0.121438935
104	0x3e6c97dd	0.23104806
105	0xbece5260	-0.40297222
106	0xbe303836	-0.17208943
107	0xbe332b80	-0.17497063
108	0x3e86ca16	0.26326054
109	0xbd9e43c7	-0.07727771
110	0x3def3ce2	0.11681534
111	0xbefbe976	-0.49201554
112	0x3cb6880f	0.022281675
113	0xbe851354	-0.2599131
114	0x3edc4eb2	0.4302879
115	0x3ec6536d	0.38735524
116	0x3dd29bda	0.102836326
117	0x3edba0fb	0.42896256
118	0xbe15f4da	-0.14644185
119	0xbf0bd3a5	-0.5461982
120	0x3d91034f	0.07080709
121	0xbc75ad33	-0.014994907
122	0x3db8002f	0.0898441
123	0xbcb85f3e	-0.022506353
124	0xbdfc97d9	-0.1233365
125	0x3c2fcf67	0.010730601
126	0xbe255677	-0.16146265
127	0x3d31cc3a	0.043407656
128	0x3dcf0b56	0.10109584
129	0x3dae9c04	0.08525851
130	0xbba0cc0f	-0.004907138
131	0x3e1567d7	0.14590393
132	0x3dea3320	0.114355326
133	0xbdf48796	-0.119399235
134	0xbdabcf62	-0.083891645
135	0x3cffe71a	0.031238127
136	0xbdc111cc	-0.094272226
137	0x3ba16440	0.004925281
138	0xbd9498b4	-0.07255688
139	0xbdc5109c	-0.096223086
140	0x3cc27de9	0.02374168
141	0xbbe73580	-0.0070559382
142	0x3d80a21e	0.062809214
143	0x3e0e9703	0.13924794
144	0xbdf731bb	-0.12070032
145	0xbd09a7da	-0.03360734
146	0x3d0f8612	0.03503997
147	0x3d198102	0.037476547
148	0xbd873c19	-0.066032596
149	0xbda67223	-0.081272386
150	0xbcefd06a	-0.029274184
151	0xbd802c68	-0.0625847
152	0x3ce14190	0.027497083
153	0xbdf575d5	-0.11985365
154	0xbc668f50	-0.014072254
155	0x3e1df593	0.1542571
156	0xbddb5948	-0.107103884
157	0x3ce4f0e1	0.027946891
158	0xbe0965cb	-0.13417737
159	0xbd14de35	-0.036344726
160	0xbe21b0cc	-0.15790099
161	0xbd91d1b9	-0.071200795
162	0xbe1c8112	-0.15283611
163	0x3c8c9703	0.017161852
164	0xbe1ba2fb	-0.15198891
165	0xbd80dc16	-0.06291978
166	0xbcad5edb	-0.021163395
167	0xbdd4276f	-0.10359084
168	0xbda55d69	-0.08074457
169	0x3da3c3bf	0.0799632
170	0xbc9f09c8	-0.019413844
171	0xbbc9c100	-0.0061570406
172	0xbceb918b	-0.028755924
173	0x3db7df6a	0.0897816
174	0xbdee56d4	-0.11637655
175	0xbbc71270	-0.006075196
176	0x3da6a57f	0.081370346
177	0x3c02dd15	0.00798728
178	0xbda52dc9	-0.080653735
179	0xbe15ee6f	-0.14641736
180	0x3e0c537d	0.13703723
181	0xbdcc7dd1	-0.09984935
182	0x3def5915	0.11686913
183	0x3dc6b294	0.0970203
184	0xbe0425ff	-0.1290512
185	0xbdd61bb8	-0.10454506
186	0xbb9aaea4	-0.004720526
187	0xbccd5470	-0.025064677
188	0xbd177130	-0.03697318
189	0xba8d7f11	-0.0010795315
190	0xbd528591	-0.05139691
191	0xbc0f67ba	-0.008752758
192	0xbcaba701	-0.020953657
193	0xbde45b4c	-0.11150226
194	0xbcba19ac	-0.02271732
195	0xbdad0058	-0.08447331
196	0xbd8fc2e9	-0.07019598
197	0x3da513bd	0.080604054
198	0x3aff3847	0.0019471728
199	0xbac3e575	-0.0014945703
200	0x3df4d7a6	0.11955194
201	0x3db7e03c	0.08978316
202	0xbd9b3170	-0.07577789
203	0x3d421e0e	0.047391944
204	0xbdff74f2	-0.124734774
205	0x3d6853ad	0.056720424
206	0xbd79f43c	-0.061023936
207	0xbdda8ade	-0.10671018
208	0xbdd412ad	-0.103551246
209	0xbca76150	-0.020432144
210	0x3e127ea1	0.14306118
211	0x3d2daa7e	0.042398922
212	0xbe131813	-0.14364652
213	0x3e055680	0.13021278
214	0xbd90c30a	-0.07068451
215	0xbdfbc605	-0.122936286
216	0x3be96d5a	0.0071236314
217	0xbae6f9d0	-0.0017622057
218	0xbd21bd1f	-0.039487
219	0x3dd49683	0.1038027
220	0xbd6fa573	-0.058507394
221	0xbe1cc4a6	-0.1530939
222	0xbc72fc64	-0.014830682
223	0xbdb01682	-0.08598043
224	0x3dff6f6a	0.124724224
225	0xbdc7f2c8	-0.09763104
226	0x3dae161e	0.08500312
227	0x3e0cc0d8	0.13745439
228	0x3d388a15	0.04505356
229	0xbd58af74	-0.0529017
230	0x3dd06e46	0.10177283
231	0x3de21872	0.11039819
232	0xbdc99ab7	-0.09843963
233	0xbe2bd8e0	-0.1678195
234	0x3da2c764	0.07948187
235	0xbe074553	-0.13210039
236	0xbc8b09e5	-0.016972492
237	0xbda5c433	-0.08094063
238	0x3ddf7a5a	0.109120086
239	0x3e138fca	0.1441032
240	0xbe0b0893	-0.1357749
241	0x3cefeaa6	0.029286694
242	0xbdf22370	-0.118231654
243	0x3d8fe758	0.07026547
244	0xbda388f8	-0.07985109
245	0x3d972996	0.07380979
246	0x3d01aa73	0.031656694
247	0x3df85831	0.12126196
248	0x3cba1f29	0.022719936
249	0xbdf9b825	-0.12193326
250	0xbd44cd0e	-0.048047118
251	0x3d684b9c	0.05671273
252	0xbbbfa0b8	-0.0058480166
253	0xbdee5844	-0.11637929
254	0xbdc5e05a	-0.09661932
255	0x3cf58060	0.02996844

fc2.bias f4 [128]
0	0x3e1e6b8d	0.15470715
1	0xbbb549b6	-0.0055324687
2	0xbc57dce3	-0.013175222
3	0x3e542dd4	0.20720607
4	0xbc8de6af	-0.017321913
5	0x3e02aa61	0.12760307
6	0x3def43de	0.116828665
7	0x3e6f0000	0.23339844
8	0xbd1457f3	-0.036216687
9	0x3d929a53	0.07158341
10	0x3def3b23	0.11681201
11	0x3c44524c	0.011982512
12	0x3ddc0813	0.107437275
13	0x3d89465b	0.06702872
14	0xbd2cddc0	-0.042203665
15	0x3de783df	0.11304449
16	0x3d8152d3	0.063146256
17	0xbc20eeb7	-0.009822539
18	0x3c827b73	0.015928006
19	0x3cc20fb6	0.023689132
20	0xbd7c1a1f	-0.06154835
21	0x3bcb2385	0.0061993026
22	0x3c7155f9	0.01472997
23	0x3e85a130	0.2609954
24	0xbca0d48e	-0.019632604
25	0x3e2ca705	0.16860588
26	0xbd94a9d4	-0.07258955
27	0xbc0daaec	-0.008646708
28	0xbd950841	-0.07276965
29	0x3eb28efb	0.3487471
30	0x3d1101b6	0.035402022
31	0x3dcc6fcc	0.09982261
32	0x3c23d70a	0.01
33	0x3d23781c	0.039909467
34	0xbd0182f9	-0.031619046
35	0xbc111940	-0.008856118
36	0xbbf23b77	-0.0073923427
37	0x3d04ecac	0.03245227
38	0xbd96fbbd	-0.07372234
39	0x399df30e	0.00030126463
40	0xbd5a6af7	-0.053324666
41	0x3c7f77ef	0.015592559
42	0xbd01641f	-0.031589624
43	0xbcb24de1	-0.021765651
44	0x3e2776d9	0.1635393
45	0xbc8344ed	-0.016024077
46	0xbc82eb12	-0.01598123
47	0xbd0b929b	-0.03407536
48	0xbca84a24	-0.020543166
49	0x3e3ce0db	0.1844515
50	0xbdda70bf	-0.10666036
51	0xbd646f01	-0.055769924
52	0x3c23d70a	0.01
53	0xbb283851	-0.0025668333
54	0xbc6e199e	-0.014532475
55	0xbd2dfe3c	-0.042478785
56	0xbd469207	-0.048479106
57	0x3cd469ee	0.025929417
58	0xbd83959c	-0.0642502
59	0x3d70d6d0	0.05879861
60	0xbd50cbd0	-0.05097562
61	0xbd8099fc	-0.0627937
62	0x3d115f93	0.035491537
63	0xbcf5913a	-0.029976476
64	0x3d1b4c7f	0.03791475
65	0xbdb0f11a	-0.086397365
66	0xbd280b39	-0.041026328
67	0xbd330bee	-0.04371255
68	0xbc2daafb	-0.010599847
69	0xbc5363b4	-0.012902189
70	0xbd9d2419	-0.07672901
71	0xbd328921	-0.043587808
72	0xbcdb1872	-0.026745055
73	0x3dabc2dd	0.083867766
74	0x3d2d6fb2	0.04234285
75	0xbd1f3574	-0.038869336
76	0xbcba82d0	-0.022767454
77	0xbd3d2ccb	-0.046185296
78	0x3e143cd8	0.14476335
79	0x3ddaac32	0.10677375
80	0xbd123e19	-0.035703752
81	0xbd6c190c	-0.057641074
82	0x3e06d6ac	0.13167828
83	0xbd66be51	-0.056333844
84	0x3e56e5db	0.2098612
85	0xbd490408	-0.04907611
86	0xbc0006e2	-0.007814141
87	0xbcac21ea	-0.021012265
88	0x3ea782c6	0.3271696
89	0x3c23d70a	0.01
90	0xbc4cc85f	-0.012498944
91	0x3e29097b	0.16507523
92	0x3df4349f	0.11924099
93	0xbbf41a17	-0.007449399
94	0xbc91d337	-0.01780091
95	0xbd6e9664	-0.058248892
96	0xbd04c93f	-0.032418486
97	0xbcea83eb	-0.028627357
98	0xbdabc056	-0.083862945
99	0x3e02910e	0.12750646
100	0xbdc870ee	-0.09787165
101	0x3e180a0b	0.14847581
102	0xbd689404	-0.056781784
103	0xbcb7b7d3	-0.022426521
104	0xbd226c08	-0.039653808
105	0x3d694c42	0.05695749
106	0xbbfe7f31	-0.0077666272
107	0xbdb754d3	-0.08951726
108	0x3d990418	0.07471484
109	0xbcb245b6	-0.021761756
110	0xbcf75c68	-0.03019543
111	0x3d62ab92	0.055339403
112	0xbc6bbba7	-0.0143880015
113	0xbd2f9288	-0.042864352
114	0xbbab4243	-0.005226405
115	0x3c23d70a	0.01
116	0x3e213f1d	0.15746732
117	0xba576abe	-0.0008217505
118	0x3d15797f	0.03649282
119	0xbd276632	-0.040868945
120	0xbca5818b	-0.020203372
121	0xbc1717d7	-0.009221992
122	0xbd6b602c	-0.057464764
123	0x3e6d9f16	0.23205218
124	0xbc1d8881	-0.009615065
125	0xbd82654b	-0.06366976
126	0x3e031860	0.12802267
127	0xbd54d0f1	-0.051957075

fc3.weight f4 [5, 128]
0	0xbe9e3466	-0.30899352
1	0x3dead355	0.1146609
2	0xbea64c63	-0.32480153
3	0x3e2b0b1c	0.16703457
4	0x3d94fdca	0.07274969
5	0x3ea76313	0.32692775
6	0xbd774c4a	-0.06037549
7	0xbee782e7	-0.45217058
8	0x3c807afd	0.015683645
9	0x3c936b1e	0.017995413
10	0xbe8454df	-0.25846002
11	0xbe39579a	-0.18099824
12	0xbe185377	-0.1487559
13	0x3d7cbf6e	0.061706
14	0x3db1f10b	0.086885534
15	0xbe8a88d0	-0.27057505
16	0xbddfcad0	-0.10927355
17	0xbe244ec4	-0.16045672
18	0x3e26482e	0.16238472
19	0x3f011e3e	0.5043677
20	0xbdff6700	-0.124708176
21	0x3e68a56d	0.22719355
22	0xbdbfa48f	-0.09357559
23	0x3e3d30be	0.18475625
24	0x3d7e1218	0.062028974
25	0xbed062ff	-0.40700528
26	0x3e60a5e4	0.21938282
27	0xbe1272ae	-0.1430156
28	0xba7696d9	-0.00094066333
29	0x3ee8da6f	0.45479152
30	0xbdd8b494	-0.105813175
31	0xbea13e36	-0.31492776
32	0xbdfeff06	-0.124509856
33	0x3dcc3155	0.09970347
34	0xbda7175a	-0.08158751
35	0xbd20de5c	-0.03927456
36	0xbd33ffda	-0.04394517
37	0x3e234697	0.15944897
38	0x3dc4634c	0.09589252
39	0xbdea2b01	-0.114339836
40	0x3e36dd03	0.17857747
41	0x3d2dab7e	0.042399876
42	0xbc386d12	-0.011256473
43	0x3c1358e0	0.008993357
44	0xbeb41902	-0.3517533
45	0xbe38f0bc	-0.18060583
46	0xba7e84ec	-0.0009709138
47	0x3e414322	0.18873265
48	0xbd8c5069	-0.068512745
49	0xbe7941b2	-0.24341467
50	0x3cee6fa5	0.02910597
51	0x3dc89548	0.09794098
52	0xbdf7134e	-0.12064229
53	0x3dfe4bb0	0.1241678
54	0x3e2cf39b	0.16889803
55	0xbdd9ef2c	-0.106413215
56	0xbe2460b9	-0.16052522
57	0x3d34f670	0.044180334
58	0xbd1e4b21	-0.038645867
59	0xbd822290	-0.063542485
60	0x3d9543c2	0.072883144
61	0x3e701468	0.23445284
62	0xbce8a106	-0.028397094
63	0x3e0cd0aa	0.13751474
64	0xbe06444d	-0.13111992
65	0xbe854c62	-0.26034838
66	0xbc351dc3	-0.011054459
67	0xbc84078f	-0.016116885
68	0x3d22b788	0.03972581
69	0xbc783a51	-0.015150622
70	0x3d9d1339	0.07669682
71	0x3e289620	0.16463518
72	0x3e6d8559	0.231954
73	0x3e0719d7	0.13193451
74	0x3d8a47a3	0.06751945
75	0x3d2e62b5	0.042574603
76	0xbe772cf2	-0.24138239
77	0x3e2c37cc	0.1681816
78	0xbdead917	-0.11467188
79	0xbeb1815d	-0.3466901
80	0x3d6adc61	0.057339076
81	0x3c605f40	0.013694584
82	0xbdc597d4	-0.096480995
83	0xbd27de68	-0.040983588
84	0xbeaeedba	-0.34165746
85	0x3e14cc88	0.14531147
86	0x3e3a8a9a	0.18216935
87	0x3e121ab6	0.14268002
88	0x3eae382c	0.3402723
89	0xbe076554	-0.13222247
90	0xbd232d94	-0.03983839
91	0x3f04f9ee	0.5194386
92	0x3e0ee9d4	0.13956386
93	0x3d4803af	0.048831638
94	0xbdef7236	-0.11691706
95	0xbe4d1dbc	-0.20030874
96	0xbe1becb1	-0.1522701
97	0xbc85962d	-0.016306961
98	0x3eaff47d	0.34366217
99	0xbea89ef9	-0.32933787
100	0x3e6286eb	0.2212178
101	0xbe823d14	-0.25437224
102	0xbe0a6eae	-0.13518783
103	0xbd300ba2	-0.042979844
104	0xbe068a2c	-0.13138646
105	0xbe982f76	-0.2972371
106	0xbe84bacb	-0.25923762
107	0x3deafc26	0.11473875
108	0xbd96adb4	-0.0735735
109	0x3df35e94	0.11883274
110	0xbe24c2ac	-0.16089886
111	0x3dd686b4	0.10474911
112	0xbe5e5520	-0.2171216
113	0x3cc36a39	0.023854362
114	0xbdeb47ae	-0.11488281
115	0x3e54d194	0.20783073
116	0xbea78612	-0.32719475
117	0x3dbe1e41	0.09283114
118	0xbddfab48	-0.10921341
119	0xbe3a00f2	-0.18164423
120	0xbde8c96c	-0.11366543
121	0x3df66aac	0.12032065
122	0xbdca956c	-0.09891781
123	0x3eb08184	0.34473813
124	0xbdad74fb	-0.08469578
125	0x3d5095ec	0.050924227
126	0xbe4547f6	-0.19265732
127	0x3d44ec9a	0.048077203
128	0xbe909b73	-0.28243598
129	0xbd25abe6	-0.04044714
130	0xbe09c0e1	-0.13452484
131	0x3e35885f	0.17727803
132	0xbd487725	-0.04894175
133	0xbdb16069	-0.08660967
134	0x3ce10c55	0.0274717
135	0xbed03395	-0.40664354
136	0x3e158371	0.14600922
137	0xbe87b784	-0.265072
138	0xbe8e213d	-0.27759734
139	0xbe390479	-0.18068112
140	0xbc149710	-0.009069219
141	0xbd85e4ba	-0.06537767
142	0xbe4a935a	-0.19782773
143	0xbeba63f1	-0.36404374
144	0xbdc47226	-0.095920846
145	0xbe229df7	-0.15880571
146	0xbe51cd4e	-0.20488474
147	0x3f7ada90	0.9798975
148	0xbe7bb455	-0.2458051
149	0x3de32e2a	0.110927895
150	0x3e3be8f6	0.18350586
151	0x3ebea129	0.3723233
152	0xbd9d224f	-0.076725595
153	0xbea0590d	-0.3131794
154	0x3e8e17fc	0.27752674
155	0x3bf306aa	0.007416566
156	0xbe71f4fa	-0.23628607
157	0x3e82dd89	0.25559643
158	0xbe0ca342	-0.13734153
159	0xbecd564e	-0.40104908
160	0x3e3c6332	0.18397215
161	0xbd946166	-0.0724514
162	0xbe58eaa9	-0.21183266
163	0xbe0bbfc2	-0.13647369
164	0xbd802982	-0.06257917
165	0x3ddb8c02	0.10720064
166	0xbdb3b8ee	-0.08775507
167	0xbc9be588	-0.019030347
168	0x3e1fa06f	0.15588544
169	0xbe863e7a	-0.2621954
170	0x3d3fdb70	0.04684013
171	0x3d9b80e5	0.07592944
172	0xbec73247	-0.38905546
173	0xbc6efbcf	-0.014586403
174	0x3b7c4243	0.0038491643
175	0x3ddbd56c	0.10734066
176	0xbde9604a	-0.11395319
177	0xbdaed152	-0.085360184
178	0x3d9ea860	0.07746959
179	0xbcd8e6d6	-0.026477259
180	0xbdc4b364	-0.096045285
181	0x3e643eba	0.22289553
182	0x3d846f8c	0.064665884
183	0xbd3f0ae7	-0.046641257
184	0xbd79b3eb	-0.0609626
185	0xbe3451cb	-0.17609327
186	0xbded7c87	-0.11596017
187	0xbe5fc038	-0.2185067
188	0x3e84a0cf	0.25903937
189	0x3eac0a7f	0.33601758
190	0xbda114c3	-0.07865288
191	0xbe1e404b	-0.15454213
192	0xbe5dcd10	-0.21660256
193	0xbe05b1d4	-0.13056117
194	0x3c2756c1	0.010213555
195	0x3de21388	0.110388815
196	0xbe242a18	-0.16031682
197	0xbddcb25f	-0.10776209
198	0x3d04972d	0.032370735
199	0xbe14d9d2	-0.14536217
200	0x3de12475	0.10993282
201	0x3f93a8f3	1.1535934
202	0x3d5f9b02	0.054591186
203	0x3cfdc79e	0.030978974
204	0xbe7ea5fc	-0.24868006
205	0x3df1d2c4	0.118077785
206	0xbe9ab19b	-0.30213627
207	0xbe9e97f3	-0.30975303
208	0x3e298922	0.16556218
209	0xbdb86043	-0.090027355
210	0xbe613ca0	-0.21995783
211	0xbc8f7033	-0.017509555
212	0xbe8f04ad	-0.27933255
213	0x3df3d449	0.119057246
214	0x3cc48bf6	0.02399252
215	0xbd412127	-0.047150757
216	0x3efcf736	0.49407357
217	0xbdee6c61	-0.116417654
218	0xbdb23b5f	-0.087027304
219	0x3e91c86c	0.28473222
220	0x3e8165cf	0.25272986
221	0x3e480939	0.19534768
222	0xbe59c5ee	-0.2126691
223	0x3da9a726	0.08283834
224	0xbe5bfc42	-0.21482947
225	0x3e186f9b	0.14886324
226	0xbd692ee8	-0.0569295
227	0xbe134021	-0.14379932
228	0x3e248dcc	0.16069716
229	0xbec5f6f2	-0.38664967
230	0xbc4cacdb	-0.012492384
231	0xbd9a8394	-0.07544628
232	0xbd51d195	-0.051225264
233	0xbe792d6f	-0.24333738
234	0xbe803e98	-0.25047755
235	0x3d079bc6	0.03310754
236	0xbe483e44	-0.19555002
237	0xbcd877ea	-0.026424367
238	0xbe5000df	-0.20312832
239	0x3daaf6bc	0.08347842
240	0xbe798a2a	-0.24369112
241	0xbe2856f7	-0.16439424
242	0x3d1269cc	0.035745427
243	0x3d9e6ed0	0.077359796
244	0xbe80fdd7	-0.25193664
245	0xbdc29578	-0.09501165
246	0xbe6ea259	-0.23304118
247	0xbe222042	-0.15832618
248	0xbe84763d	-0.2587146
249	0x3e43c030	0.19116282
250	0xbb434a4f	-0.002979893
251	0x3e80ee5f	0.25181863
252	0xbe1ae493	-0.15126257
253	0x3e8a6f14	0.2703787
254	0xbe6d4ce7	-0.23173867
255	0xbcc45484	-0.023966081

fc3.bias f4 [5]
0	0xbe4d9b44	-0.2007876
1	0xbd8bdd5b	-0.068293296
2	0xbe43c3d8	-0.19117677
3	0xbe34fc5f	-0.17674397
4	0xbe1e748c	-0.15474147

fc1.weight f4 [128, 45]
0	0x3c06d3a1	0.008229167
1	0xbe27d6e2	-0.16390565
2	0x3b099501	0.0020993354
3	0x3f154a00	0.5831604
4	0x3d9d2648	0.07673317
5	0xbe0d7144	-0.13812739
6	0x3dc0064a	0.093761995
7	0x3e17c950	0.14822888
8	0xbe1fcf24	-0.15606362
9	0xbe1d7958	-0.1537832
10	0x3cea11b8	0.028572902
11	0x3e3626a6	0.1778818
12	0xbdfeff01	-0.12450982
13	0xbb853c4c	-0.004066026
14	0xbdefed06	-0.117151305
15	0xbdb35a16	-0.08757417
16	0x3e1bc785	0.1521283
17	0xbda72be9	-0.08162672
18	0x3dce39c8	0.10069615
19	0x3ecbbadc	0.39791
20	0xbe238839	-0.15969934
21	0xbdf8ede4	-0.12154749
22	0xbd9d3e79	-0.07677931
23	0xbe040c0e	-0.12895223
24	0x3e2ae4ef	0.16688894
25	0x3d25bdd4	0.040464237
26	0x3d68f385	0.056872863
27	0x3f1b25b2	0.60604393
28	0xbd277c73	-0.04089017
29	0xbdf9eadd	-0.12203
30	0x3cc359b4	0.023846485
31	0x3d50dfb6	0.050994597
32	0x3e49c2c6	0.19703206
33	0x3e509fe9	0.20373501
34	0xbcbc23f0	-0.022966355
35	0x3eb4ec31	0.3533645
36	0xbd675917	-0.056481447
37	0xbe59f6a5	-0.21285494
38	0x3dfa58f1	0.122239955
39	0x3dfccab5	0.12343351
40	0x3e8cca73	0.27498206
41	0xbf8d43a0	-1.1036263
42	0x3ed104df	0.4082403
43	0x3d1dce7b	0.038526993
44	0xbe327a37	-0.17429434
45	0xbdd38222	-0.10327555
46	0xbe2cedc1	-0.16887571
47	0xbec6b2e1	-0.3880835
48	0xbf4d9ec1	-0.80320364
49	0x3c8bbbaf	0.017057268
50	0xbe0d8a33	-0.1382225
51	0x3dc0b3b7	0.09409278
52	0xbdc386ae	-0.095471725
53	0xbeb55a2e	-0.35420364
54	0xbe6958d6	-0.22787794
55	0x3e7d1877	0.24716364
56	0xbe2a1994	-0.1661132
57	0x3e3b97fa	0.18319693
58	0x3d5281b5	0.05139323
59	0xbda9bcb3	-0.08287945
60	0x3d8cf91c	0.06883451
61	0xbfece8ae	-1.8508508
62	0xbfe171e5	-1.7612883
63	0xc01953cf	-2.3957403
64	0xc06585cc	-3.5862913
65	0xbd2550e0	-0.04036033
66	0x3d8cb0e9	0.068696804
67	0xbd665b3d	-0.056239355
68	0xbd0bc16c	-0.03412001
69	0xbf292c74	-0.66083455
70	0xbec464f6	-0.38358277
71	0xbf475a2b	-0.7787196
72	0xbf2c325e	-0.67264354
73	0xbdf858af	-0.1212629
74	0xbd4f605f	-0.050629016
75	0x3e38ecae	0.18059036
76	0xbe05bdc6	-0.13060674
77	0x3deea3c5	0.1165233
78	0x3e89a1b3	0.2688118
79	0xbdff2f57	-0.12460201
80	0xbe3e6ee8	-0.18596995
81	0xbdc174c5	-0.094461
82	0xbe27e9e4	-0.16397816
83	0x3e01805b	0.1264662
84	0x3e4e22f2	0.20130518
85	0xbf259249	-0.6467634
86	0xbd8bf0b7	-0.06833022
87	0xbeb54030	-0.35400534
88	0x3e20c96d	0.15701838
89	0x3d2c1e44	0.04202105
90	0xbeb0a4ac	-0.34500635
91	0xbe76245e	-0.2403731
92	0xbe572001	-0.21008302
93	0xbf86ac4d	-1.0521332
94	0x3e5396bf	0.20662974
95	0x3e8b32cf	0.271872
96	0x3e4171e3	0.188911
97	0x3dc3b8d9	0.09556741
98	0xbeee4409	-0.46536282
99	0xbf183312	-0.5945293
100	0x3d98f29a	0.074681476
101	0xbf3e0265	-0.74222404
102	0x3d687028	0.056747586
103	0x3e940014	0.2890631
104	0x3ea2d58c	0.31803548
105	0xbc0c0f00	-0.008548498
106	0xbd13d7fd	-0.036094654
107	0xbde809a1	-0.113299616
108	0xbe435971	-0.19077088
109	0xbf855a01	-1.0418092
110	0x3ecf811a	0.40528184
111	0x3e97d89b	0.29657444
112	0x3ec60aa4	0.38679993
113	0x3b9348c0	0.0044947565
114	0x3dcd8a84	0.100361854
115	0x3ea40e66	0.32042235
116	0x3e64e918	0.22354543
117	0xbed1f5fe	-0.4100799
118	0x3e709a41	0.23496343
119	0x3d965016	0.07339494
120	0x3ecd50e9	0.40100792
121	0x3dbf3670	0.09336555
122	0xbee74f86	-0.4517786
123	0xbeb2a7da	-0.34893686
124	0xbefbb217	-0.4915931
125	0xbfad7c33	-1.3553528
126	0x3e8f7b62	0.2802382
127	0x3ebd8ff7	0.370239
128	0x3d17ee18	0.0370923
129	0x3dc9064b	0.098156534
130	0xbe90d0d3	-0.2828432
131	0xbea11b84	-0.31466305
132	0xbe48c27f	-0.19605444
133	0x3dbd6d38	0.092493474
134	0xbdadde51	-0.08489669
135	0xbdce88c8	-0.10084683
136	0xbc9e6fde	-0.019340452
137	0xbe247f61	-0.16064216
138	0xbdf329ff	-0.118732445
139	0x3da7e1d6	0.08197372
140	0xbc91bf48	-0.017791405
141	0xbc78eaed	-0.015192729
142	0x3c820c58	0.015875027
143	0xbdcf0a16	-0.101093456
144	0xbe4bda40	-0.19907475
145	0xbda93fe1	-0.08264137
146	0xbd8825f8	-0.06647867
147	0xbdaf2d90	-0.08553612
148	0x3c270fc0	0.010196626
149	0x3e0305b4	0.12795144
150	0xbde4ec5b	-0.11177894
151	0x3be147ba	0.0068750056
152	0xbdcb9526	-0.09940557
153	0x3d627363	0.055285823
154	0xbe5b2192	-0.21399525
155	0x3e02ea37	0.12784658
156	0xbde7fcfc	-0.1132755
157	0xbd7dcd1e	-0.061963193
158	0x3d297c54	0.041378334
159	0x3d96591d	0.07341216
160	0xbdc7d75c	-0.097578734
161	0xbda30a42	-0.07960941
162	0xbd6be68e	-0.05759292
163	0x3e097485	0.13423355
164	0xbd92926f	-0.07156836
165	0x3dfed202	0.124423996
166	0x3deaea18	0.11470431
167	0xbc77cc9d	-0.015124467
168	0x3c061cc4	0.008185569
169	0x3d718215	0.058961947
170	0x3d4706fe	0.048590653
171	0x3d745538	0.059651583
172	0xbe345c6d	-0.17613383
173	0xbe1e6578	-0.15468395
174	0x3dab6bcd	0.08370171
175	0xbc89ca40	-0.016820073
176	0x3d125f98	0.035735697
177	0x3b05436a	0.0020334371
178	0xbe05e701	-0.13076402
179	0x3e2c3a78	0.16819179
180	0xbe3fbcb5	-0.1872433
181	0xbdc9c59e	-0.098521456
182	0xbe0d90a1	-0.13824703
183	0x3e581ff7	0.21105944
184	0x3de94026	0.113891885
185	0xbdb0c2b0	-0.08630884
186	0xbc899ff4	-0.016799904
187	0xbe0ff1d3	-0.14057092
188	0x3bd413b8	0.006472077
189	0x3de3f57c	0.11130807
190	0xbe586709	-0.21133055
191	0x3e025a78	0.12729824
192	0x3dd70660	0.10499263
193	0x3d2cf2c5	0.04222371
194	0x3d9e1154	0.07718149
195	0xbdc5eef2	-0.09664716
196	0x3e232cc7	0.1593505
197	0x3e6a65b9	0.22890367
198	0xbda6910a	-0.08133133
199	0x3eded618	0.43522716
200	0x3da61370	0.08109176
201	0xbd70a5f0	-0.058752
202	0x3c4a9d8a	0.012366662
203	0x3c8be525	0.017077038
204	0x3dbf8b28	0.09352714
205	0x3c0509a0	0.008119971
206	0x3de35348	0.11099869
207	0x3f0eeab2	0.55826867
208	0xbe12cc9c	-0.14335865
209	0x3d5df9ad	0.054193188
210	0xbe45f01c	-0.19329876
211	0xbcbe9841	-0.02326596
212	0xbe14676d	-0.14492579
213	0x3dc4cb61	0.09609104
214	0x3d2b5392	0.041827746
215	0x3ede969e	0.43474287
216	0x3c92c3b6	0.017915588
217	0xbec2e9c4	-0.38068974
218	0xbe4f58e7	-0.20248757
219	0xbe25bf90	-0.16186357
220	0x3e91049b	0.28323826
221	0xbf670b30	-0.90251446
222	0x3e8df1f1	0.2772365
223	0x3c1b040a	0.009461412
224	0xbb8c6ee0	-0.0042856783
225	0x3de55d14	0.11199394
226	0x3df87c85	0.12133125
227	0xbe51c429	-0.20484985
228	0xbe154839	-0.14578332
229	0xbdf74664	-0.12073973
230	0x3d3a2388	0.04544404
231	0xbd2833b8	-0.041064948
232	0x3e0224c8	0.12709343
233	0xbe1d3a34	-0.15354234
234	0x3dc5bf08	0.09655577
235	0xbe12b320	-0.14326143
236	0x3d6e3a28	0.05816093
237	0x3d9a69e3	0.075397275
238	0xbcd7ffaf	-0.026367037
239	0xbddd4ac5	-0.10805277
240	0xbe21aa70	-0.15787673
241	0x3dd675dd	0.104716994
242	0xbdc6f75d	-0.097151496
243	0x3dc6f9c5	0.097156085
244	0xbe1f8e1e	-0.15581557
245	0xbe47dd49	-0.19518007
246	0xbe4edf70	-0.20202422
247	0xbdaae560	-0.08344531
248	0x3df654f4	0.12027922
249	0xbe403024	-0.18768364
250	0xbd8e12b9	-0.06937165
251	0x3db5743d	0.08860061
252	0xbe01e2cd	-0.12684174
253	0xbe49fb18	-0.19724691
254	0xbddda79b	-0.10822984
255	0x3dae9070	0.08523643

fc1.bias f4 [128]
0	0x3cadb8d2	0.021206293
1	0x3cb8a09c	0.022537522
2	0x3e7ef2ab	0.24897258
3	0xbca7fec9	-0.020507233
4	0xbc815343	-0.015786773
5	0xbcb00351	-0.021485956
6	0xbb9ec464	-0.004845189
7	0x3dc503d7	0.09619873
8	0xbcc3f611	-0.023921045
9	0x3c23d70a	0.01
10	0xbca801c5	-0.020508656
11	0x3e31c417	0.17359959
12	0x3d825925	0.06364659
13	0x3c23d70a	0.01
14	0x3e75a34c	0.23988074
15	0x3d899d6a	0.067194775
16	0xbc523b63	-0.012831542
17	0x3b863146	0.0040952293
18	0xbddc7298	-0.107640445
19	0xbd98be52	-0.07458176
20	0x3e2ba8a0	0.16763544
21	0x3ca484da	0.02008288
22	0xbc79e9ba	-0.015253479
23	0xbd22300e	-0.03959661
24	0xbd2567a7	-0.040382054
25	0x3cab2a94	0.020894326
26	0xbd3326ce	-0.04373818
27	0xbc76055a	-0.015015924
28	0x3d4e7e8e	0.05041366
29	0xbe0dcad6	-0.13846907
30	0x3daa4ba1	0.08315206
31	0xbb50d6b0	-0.0031866245
32	0x3c1fb137	0.009746841
33	0xbd2838e9	-0.0410699
34	0xbd0855da	-0.033285
35	0xbd7b5f80	-0.061370373
36	0xbb8c19f3	-0.0042755543
37	0xbd5b1037	-0.05348226
38	0x3b5843c8	0.0032999385
39	0x3e8dea44	0.27717793
40	0x3e5ecdda	0.21758214
41	0xbd2cfaac	-0.042231247
42	0x3c23d70a	0.01
43	0x3d3f393c	0.046685442
44	0xbd0ea608	-0.03482631
45	0xbd1a0238	-0.037599772
46	0xbc07d29a	-0.008289957
47	0xbd402474	-0.046909764
48	0xba90413a	-0.0011005767
49	0xbd8f5adb	-0.06999751
50	0x3ab220e5	0.0013590126
51	0xbd0457d1	-0.03231031
52	0x3d17f755	0.03710111
53	0x3e99eada	0.3006199
54	0xbcace822	-0.021106783
55	0x3c331f30	0.010932729
56	0x3c842bf4	0.01613424
57	0x3dc16b63	0.094443105
58	0x3c821edf	0.015883861
59	0x3cb23848	0.021755353
60	0x3c1a2b17	0.0094096875
61	0xbcff3b7d	-0.031156296
62	0x3d6896cd	0.05678444
63	0xbcc74864	-0.02432651
64	0x3b9eace8	0.0048423894
65	0x3de562b8	0.1120047
66	0x3d09c028	0.03363052
67	0xbdb275fd	-0.08713911
68	0xbd758ec1	-0.059950594
69	0x3d267927	0.040642884
70	0x3d65ca46	0.056101106
71	0xbd73a5d0	-0.059484303
72	0x3e184537	0.14870153
73	0xbd2b6bf0	-0.041850984
74	0x3e29e736	0.16592106
75	0xbd8f579f	-0.06999134
76	0x3d9f2b72	0.077719584
77	0x3de82077	0.11334317
78	0x3dff8365	0.124762334
79	0x3d9d637c	0.07684991
80	0x3c15f1b8	0.0091518685
81	0x3c76e4bc	0.015069183
82	0xbd713b3f	-0.058894392
83	0xbd4ace7f	-0.049513336
84	0x3c2ebde0	0.010665387
85	0xbae1c2cf	-0.0017224195
86	0xbd006952	-0.03135044
87	0xbda00863	-0.078141
88	0xbe11860a	-0.14211288
89	0xbc3cf39a	-0.0115326885
90	0xbc5f012d	-0.01361112
91	0x3c110860	0.008852094
92	0xbd848c44	-0.06472066
93	0x3d03925e	0.03212201
94	0xbc396abc	-0.011316951
95	0xbd59e5d1	-0.053197686
96	0xbc0fb6b4	-0.008771587
97	0x3e092c85	0.13395889
98	0xbd292ed2	-0.041304417
99	0x3e93f8e7	0.28900835
100	0xbd3c5a08	-0.045984298
101	0x3d90a990	0.070635915
102	0xbc1a0e46	-0.009402817
103	0x3e042466	0.1290451
104	0xbd85e476	-0.06537716
105	0x3dc6c7c5	0.09706072
106	0x3c6dc5ac	0.014512461
107	0x3e13d3dc	0.14436287
108	0xbd90de89	-0.07073695
109	0xbc6ab754	-0.014325935
110	0xbcab9ffd	-0.020950312
111	0x3e07c387	0.13258182
112	0x3e0afa83	0.13572125
113	0x3e0bad7f	0.13640402
114	0x3d2a23b9	0.041537974
115	0x3d0fc162	0.035096534
116	0xbd36ca0b	-0.044626277
117	0x3abc924d	0.0014386863
118	0x3dbc515a	0.09195204
119	0x3dc5eb20	0.09663987
120	0x3da22a24	0.07918194
121	0xbcf278e5	-0.029598663
122	0xbb09bbd5	-0.0021016498
123	0xbd1aa8f8	-0.037758797
124	0x3da953a3	0.082679056
125	0x3d21d035	0.039505202
126	0x3e29a2f8	0.16566074
127	0xbd16e1fa	-0.0368366

fc2.weight f4 [128, 128]
0	0x3eb9839c	0.36233222
1	0xbf0d62ae	-0.552287
2	0xbe1e2efa	-0.15447608
3	0xbd951ffd	-0.07281492
4	0x3e1e8e4c	0.1548397
5	0xbd4a89b0	-0.049447715
6	0x3e4ce411	0.20008875
7	0xbe52b984	-0.20578581
8	0x3e172956	0.14761862
9	0xbdcd9f78	-0.10040182
10	0xbc182e1e	-0.009288339
11	0xbe4c9105	-0.19977196
12	0xbd7c7672	-0.061636396
13	0xbdb1c728	-0.08680564
14	0xbdcbb0e5	-0.09945849
15	0xbbf3fb65	-0.00744574
16	0x3e902407	0.28152487
17	0x3e9268e3	0.28595647
18	0x3e09cc02	0.13456729
19	0x3ea269f1	0.31721452
20	0xbe7178b7	-0.23581205
21	0xbdafdb08	-0.08586699
22	0x3cd59f2d	0.026076877
23	0x3e1c9840	0.15292454
24	0x3e9cf785	0.30657592
25	0x3e217e2b	0.15770786
26	0x3e059ec3	0.13048844
27	0x3ec0ca81	0.37654498
28	0xbd82c41b	-0.063850604
29	0xbd217408	-0.039417297
30	0xbe8ddd74	-0.27708018
31	0x3e633040	0.22186375
32	0x3ebb1979	0.36542872
33	0x3e440a38	0.19144523
34	0xbc2cdf1d	-0.010551241
35	0x3e0f34f3	0.13985042
36	0x3e776734	0.24160463
37	0x3e8c3755	0.27385965
38	0x3eb0c90a	0.3452838
39	0xbe188fc0	-0.14898586
40	0xbed7dfeb	-0.42163023
41	0x3ce17222	0.027520243
42	0x3d0d3db8	0.034482688
43	0xbdb9eb63	-0.090780996
44	0x3eb9ae58	0.36265826
45	0x3e832be0	0.2561941
46	0xbe08817f	-0.13330649
47	0xbc63ac69	-0.013896086
48	0x3eb74f00	0.3580246
49	0x3e78ed96	0.24309382
50	0xbe05ff55	-0.13085683
51	0xbc4e4239	-0.012589031
52	0x3eec6f89	0.46178845
53	0xbccbdb36	-0.024884801
54	0x3e008d6d	0.1255395
55	0x3daf3fa1	0.08557058
56	0xbd02e3d8	-0.03195557
57	0xbeca2e77	-0.39488575
58	0x3eabb595	0.33536974
59	0x3e8275c0	0.2548046
60	0x3ea10821	0.31451514
61	0x3e8dfb23	0.27730665
62	0x3e7a167e	0.24422643
63	0x3ec28a35	0.3799607
64	0xbfc681d9	-1.5508376
65	0xbcbabe99	-0.022795962
66	0xbeffe2e8	-0.49977803
67	0xbd53ffa2	-0.051757462
68	0xbf61b8a0	-0.8817234
69	0x3ec670db	0.38757977
70	0xbe60f6ba	-0.21969119
71	0x3ed78c2e	0.42099136
72	0xbe9c2045	-0.3049337
73	0x3de385cd	0.11109505
74	0xbe0116c5	-0.12606342
75	0xbe4d8fba	-0.20074359
76	0xbd4b126a	-0.049578108
77	0x3d045a22	0.03231252
78	0xbe1ea479	-0.15492429
79	0x3e86013d	0.2617282
80	0x3ee15497	0.4400985
81	0x3f3bde5e	0.7338618
82	0x3dcf0fe1	0.101104505
83	0xbda78355	-0.081793465
84	0x3ec1215c	0.37720764
85	0xbd1d11c1	-0.03834701
86	0x3daae105	0.083437
87	0xbc5e52fd	-0.013569591
88	0x3df0da77	0.11760419
89	0x3e4c4fa6	0.19952258
90	0x3e7d5146	0.24738035
91	0x3ecfa49a	0.4055527
92	0x3e067342	0.13129905
93	0xbecfa0f0	-0.40552473
94	0x3ee54a22	0.4478312
95	0x3df1f1f4	0.11813727
96	0x3e05d9d7	0.1307138
97	0xbefd9a26	-0.49531668
98	0x3dfdc51d	0.12391112
99	0xbf42c7a5	-0.76085883
100	0xbfb5f4c8	-1.4215326
101	0x3e8effeb	0.27929625
102	0x3c8cd6e1	0.017192306
103	0xbdf9506f	-0.121735446
104	0x3e6cba5a	0.23117962
105	0xbece5260	-0.40297222
106	0xbe311a04	-0.1729508
107	0xbe34df4e	-0.17663309
108	0x3e8830cf	0.26599738
109	0xbd9e43c7	-0.07727771
110	0x3def3ce2	0.11681534
111	0xbefbe976	-0.49201554
112	0x3ca620aa	0.020279247
113	0xbe85bb9d	-0.261197
114	0x3edc1f52	0.42992646
115	0x3ec627ad	0.38702145
116	0x3dd29bda	0.102836326
117	0x3edb8804	0.4287721
118	0xbe172507	-0.14760219
119	0xbf0b1b55	-0.5433858
120	0x3d8fced3	0.070218705
121	0xbc75ad33	-0.014994907
122	0x3db7957f	0.08964061
123	0xbcb85f3e	-0.022506353
124	0xbdfb822f	-0.1228069
125	0x3c47fb63	0.012205931
126	0xbe2698af	-0.16269182
127	0x3d31cc3a	0.043407656
128	0x3dcf0b56	0.10109584
129	0x3dae9c04	0.08525851
130	0xbba0cc0f	-0.004907138
131	0x3e1567d7	0.14590393
132	0x3dea3320	0.114355326
133	0xbdf48796	-0.119399235
134	0xbdabcf62	-0.083891645
135	0x3cffe71a	0.031238127
136	0xbdc111cc	-0.094272226
137	0x3ba16440	0.004925281
138	0xbd9498b4	-0.07255688
139	0xbdc5109c	-0.096223086
140	0x3cc27de9	0.02374168
141	0xbbe73580	-0.0070559382
142	0x3d80a21e	0.062809214
143	0x3e0e9703	0.13924794
144	0xbdf731bb	-0.12070032
145	0xbd09a7da	-0.03360734
146	0x3d0f8612	0.03503997
147	0x3d198102	0.037476547
148	0xbd873c19	-0.066032596
149	0xbda67223	-0.081272386
150	0xbcefd06a	-0.029274184
151	0xbd802c68	-0.0625847
152	0x3ce14190	0.027497083
153	0xbdf575d5	-0.11985365
154	0xbc668f50	-0.014072254
155	0x3e1df593	0.1542571
156	0xbddb5948	-0.107103884
157	0x3ce4f0e1	0.027946891
158	0xbe0965cb	-0.13417737
159	0xbd14de35	-0.036344726
160	0xbe21b0cc	-0.15790099
161	0xbd91d1b9	-0.071200795
162	0xbe1c8112	-0.15283611
163	0x3c8c9703	0.017161852
164	0xbe1ba2fb	-0.15198891
165	0xbd80dc16	-0.06291978
166	0xbcad5edb	-0.021163395
167	0xbdd4276f	-0.10359084
168	0xbda55d69	-0.08074457
169	0x3da3c3bf	0.0799632
170	0xbc9f09c8	-0.019413844
171	0xbbc9c100	-0.0061570406
172	0xbceb918b	-0.028755924
173	0x3db7df6a	0.0897816
174	0xbdee56d4	-0.11637655
175	0xbbc71270	-0.006075196
176	0x3da6a57f	0.081370346
177	0x3c02dd15	0.00798728
178	0xbda52dc9	-0.080653735
179	0xbe15ee6f	-0.14641736
180	0x3e0c537d	0.13703723
181	0xbdcc7dd1	-0.09984935
182	0x3def5915	0.11686913
183	0x3dc6b294	0.0970203
184	0xbe0425ff	-0.1290512
185	0xbdd61bb8	-0.10454506
186	0xbb9aaea4	-0.004720526
187	0xbccd5470	-0.025064677
188	0xbd177130	-0.03697318
189	0xba8d7f11	-0.0010795315
190	0xbd528591	-0.05139691
191	0xbc0f67ba	-0.008752758
192	0xbcaba701	-0.020953657
193	0xbde45b4c	-0.11150226
194	0xbcba19ac	-0.02271732
195	0xbdad0058	-0.08447331
196	0xbd8fc2e9	-0.07019598
197	0x3da513bd	0.080604054
198	0x3aff3847	0.0019471728
199	0xbac3e575	-0.0014945703
200	0x3df4d7a6	0.11955194
201	0x3db7e03c	0.08978316
202	0xbd9b3170	-0.07577789
203	0x3d421e0e	0.047391944
204	0xbdff74f2	-0.124734774
205	0x3d6853ad	0.056720424
206	0xbd79f43c	-0.061023936
207	0xbdda8ade	-0.10671018
208	0xbdd412ad	-0.103551246
209	0xbca76150	-0.020432144
210	0x3e127ea1	0.14306118
211	0x3d2daa7e	0.042398922
212	0xbe131813	-0.14364652
213	0x3e055680	0.13021278
214	0xbd90c30a	-0.07068451
215	0xbdfbc605	-0.122936286
216	0x3be96d5a	0.0071236314
217	0xbae6f9d0	-0.0017622057
218	0xbd21bd1f	-0.039487
219	0x3dd49683	0.1038027
220	0xbd6fa573	-0.058507394
221	0xbe1cc4a6	-0.1530939
222	0xbc72fc64	-0.014830682
223	0xbdb01682	-0.08598043
224	0x3dff6f6a	0.124724224
225	0xbdc7f2c8	-0.09763104
226	0x3dae161e	0.08500312
227	0x3e0cc0d8	0.13745439
228	0x3d388a15	0.04505356
229	0xbd58af74	-0.0529017
230	0x3dd06e46	0.10177283
231	0x3de21872	0.11039819
232	0xbdc99ab7	-0.09843963
233	0xbe2bd8e0	-0.1678195
234	0x3da2c764	0.07948187
235	0xbe074553	-0.13210039
236	0xbc8b09e5	-0.016972492
237	0xbda5c433	-0.08094063
238	0x3ddf7a5a	0.109120086
239	0x3e138fca	0.1441032
240	0xbe0b0893	-0.1357749
241	0x3cefeaa6	0.029286694
242	0xbdf22370	-0.118231654
243	0x3d8fe758	0.07026547
244	0xbda388f8	-0.07985109
245	0x3d972996	0.07380979
246	0x3d01aa73	0.031656694
247	0x3df85831	0.12126196
248	0x3cba1f29	0.022719936
249	0xbdf9b825	-0.12193326
250	0xbd44cd0e	-0.048047118
251	0x3d684b9c	0.05671273
252	0xbbbfa0b8	-0.0058480166
253	0xbdee5844	-0.11637929
254	0xbdc5e05a	-0.09661932
255	0x3cf58060	0.02996844

fc2.bias f4 [128]
0	0x3e1dce46	0.15410718
1	0xbbb549b6	-0.0055324687
2	0xbc69f037	-0.014278463
3	0x3e4a7984	0.19772917
4	0xbc1a8adb	-0.00943252
5	0x3dfc4e7c	0.12319657
6	0x3dd816b3	0.105512045
7	0x3e6e9f68	0.23302996
8	0xbd1457f3	-0.036216687
9	0x3d915176	0.070956156
10	0x3def1c32	0.116753
11	0x3c2a7bc1	0.010405482
12	0x3dd890a6	0.105744645
13	0x3d78c700	0.060736656
14	0xbd2cddc0	-0.042203665
15	0x3de724fb	0.1128635
16	0x3d804dbb	0.06264826
17	0xbc10fc4c	-0.008849215
18	0x3bcf502a	0.006326695
19	0x3cc25259	0.023720907
20	0xbd721c8a	-0.05910925
21	0x3bcb2385	0.0061993026
22	0x3c219a5c	0.009863462
23	0x3e829834	0.25506747
24	0xbca8e56c	-0.02061721
25	0x3e2c6125	0.16833933
26	0xbd94a9d4	-0.07258955
27	0xbc0daaec	-0.008646708
28	0xbd970c78	-0.07375425
29	0x3eb13b56	0.34615582
30	0x3d0f0619	0.034917925
31	0x3dcc87f9	0.09986872
32	0x3c23d70a	0.01
33	0x3d0deaaa	0.03464762
34	0xbd0182f9	-0.031619046
35	0xbc111940	-0.008856118
36	0xbbf23b77	-0.0073923427
37	0x3cfe713f	0.03105986
38	0xbd96fbbd	-0.07372234
39	0x399df30e	0.00030126463
40	0xbd5a6af7	-0.053324666
41	0x3cbe7525	0.023249218
42	0xbd01641f	-0.031589624
43	0xbcb24de1	-0.021765651
44	0x3e26894f	0.16263317
45	0xbc8344ed	-0.016024077
46	0xbc82eb12	-0.01598123
47	0xbd0b929b	-0.03407536
48	0xbc9bb973	-0.019009328
49	0x3e3d420b	0.18482225
50	0xbdda70bf	-0.10666036
51	0xbd646f01	-0.055769924
52	0x3c23d70a	0.01
53	0xbc4c50d4	-0.012470443
54	0xbc6e199e	-0.014532475
55	0xbd3ad780	-0.045615673
56	0xbd469207	-0.048479106
57	0x3cce5715	0.025188008
58	0xbd83959c	-0.0642502
59	0x3d6e48ad	0.058174778
60	0xbd50cbd0	-0.05097562
61	0xbd8099fc	-0.0627937
62	0x3cabcf86	0.020972978
63	0xbcf5913a	-0.029976476
64	0x3d166676	0.036718808
65	0xbdadaf88	-0.084807456
66	0xbd280b39	-0.041026328
67	0xbd330bee	-0.04371255
68	0xbc2daafb	-0.010599847
69	0xbc5363b4	-0.012902189
70	0xbd97610d	-0.07391558
71	0xbd328921	-0.043587808
72	0xbcdb1872	-0.026745055
73	0x3da928d0	0.082597375
74	0x3d22056f	0.039555963
75	0xbd1f3574	-0.038869336
76	0xbcb8b252	-0.022545967
77	0xbd3d2ccb	-0.046185296
78	0x3e1490b4	0.14508325
79	0x3ddb8102	0.10717966
80	0xbd123e19	-0.035703752
81	0xbd6c190c	-0.057641074
82	0x3e071273	0.13190632
83	0xbd66be51	-0.056333844
84	0x3e561436	0.20906147
85	0xbd490408	-0.04907611
86	0xba82382a	-0.0009934951
87	0xbcac21ea	-0.021012265
88	0x3ea50bdd	0.32235613
89	0x3c23d70a	0.01
90	0xbc6caf99	-0.014446163
91	0x3e250f91	0.1611922
92	0x3dfd2890	0.12361252
93	0xbbf41a17	-0.007449399
94	0xbc88af08	-0.016685024
95	0xbd6e9664	-0.058248892
96	0xbd07abbc	-0.033122763
97	0xbcea83eb	-0.028627357
98	0xbdabc056	-0.083862945
99	0x3e025cfa	0.1273078
100	0xbdc870ee	-0.09787165
101	0x3e17d427	0.14827023
102	0xbd689404	-0.056781784
103	0xbcb7b7d3	-0.022426521
104	0xbd226c08	-0.039653808
105	0x3d687ce9	0.05675975
106	0xbbd20305	-0.0064090514
107	0xbdb754d3	-0.08951726
108	0x3d9984b5	0.07496015
109	0xbcb245b6	-0.021761756
110	0xbcf75c68	-0.03019543
111	0x3d4e5267	0.050371554
112	0xbc68d401	-0.014210702
113	0xbd2f9288	-0.042864352
114	0xbbab4243	-0.005226405
115	0x3c23d70a	0.01
116	0x3e2069e9	0.15665402
117	0xba576abe	-0.0008217505
118	0x3d12a928	0.03580585
119	0xbd276632	-0.040868945
120	0xbc9f8218	-0.019471213
121	0xbc1717d7	-0.009221992
122	0xbd6b602c	-0.057464764
123	0x3e67e134	0.22644502
124	0xbc1d8881	-0.009615065
125	0xbd82654b	-0.06366976
126	0x3e02a39b	0.12757723
127	0xbd54d0f1	-0.051957075
